layer4_linear_probe.pth (torch, 6149 bytes, 2 tensors)

linear.weight f4 [2, 512]
000000 8e 44 3b bd 3b 58 5e 3d c3 e0 c1 3c b1 d7 b4 bd
       -0.045719676 0.054283362 0.023666745 -0.08830202
000010 51 33 07 bd 66 a5 79 bd d8 45 cc b9 33 c0 de bd
       -0.033007924 -0.060948752 -0.0003896195 -0.10876503
000020 db a4 83 3d 00 11 b0 bd b0 e3 d9 bc 5c c6 46 bc
       0.06427928 -0.085969925 -0.026597828 -0.0121322535
000030 47 ba b1 bc a3 a2 bc 3b 1c 92 9e 3d dd aa 0d bc
       -0.02169527 0.0057566925 0.07742712 -0.008646694
000040 19 40 1d bd 72 42 95 bd fc 1f 84 bc 06 53 80 bd
       -0.038391206 -0.07288064 -0.016128533 -0.062658355
000050 a2 48 97 3c 84 5c 3f bd d2 37 73 bb c0 32 4b bd
       0.018467251 -0.04671909 -0.003711213 -0.049608946
000060 9c 7d 97 3d b9 9e 14 bd ca 7f 16 3c ad 94 11 bd
       0.07397005 -0.036284182 0.009185741 -0.03554218
000070 b0 88 97 3d a8 64 e7 bc 2d f0 0f 3e c9 33 ae 3d
       0.07399118 -0.028246239 0.14056464 0.08505971
000080 a5 76 cc 3c c3 21 ee 3b 18 ad 2e bd 2a c8 4a bd
       0.024958918 0.0072672083 -0.042645544 -0.049507298
000090 37 ac 7b 3d fd 56 86 bd 5b fc 8d bd 2a 4c 41 bd
       0.061443534 -0.065595604 -0.069328986 -0.047191776
0000a0 60 e3 0b bd ca 6b 0a 3e 81 64 15 3d de e1 2d bd
       -0.03415239 0.13517681 0.0364728 -0.04245173
0000b0 a4 1f 75 3d 5c 3f 6b 3d 26 41 5e 3d d7 4a bf bd
       0.059844628 0.05743347 0.05426135 -0.093404464
0000c0 bd ca 4c bd cc ed 0b bd ad 46 7a 3c 87 d4 2d 3c
       -0.049998034 -0.034162328 0.0152756395 0.0106097525
0000d0 46 a4 03 be 95 39 bd ba 7a e6 f2 bd d5 3b 8d 3d
       -0.12855634 -0.0014436716 -0.11860366 0.06896178
0000e0 2c fb 5e bd f8 cc 5e bd c2 56 f3 3b b9 3d 4e bd
       -0.054438755 -0.054394692 0.007426114 -0.050351832
0000f0 ec 5a 1b 3d 87 d4 e3 bc cc 2b da 3d 4f ed 97 bc
       0.037928507 -0.027811302 0.10652885 -0.018545775
000100 0d a7 6c 3d 59 24 cb 3a 5b 69 a7 bd 8a ab b6 bb
       0.0577765 0.0015498503 -0.08174392 -0.0055746483
000110 ac d4 68 3b af fe 66 bd d3 9c 2d bc de fa f8 3d
       0.0035527153 -0.05639523 -0.010596472 0.12157224
000120 18 62 7e 3d 99 36 31 bd a5 cc 01 3b 68 1a dd 3d
       0.06210527 -0.04326496 0.0019805816 0.10796052
000130 3e 6e ea ba 32 71 bb bd e4 f0 e7 bb 14 0e ad 3b
       -0.0017885638 -0.0915245 -0.007078277 0.0052812193
000140 2f 64 9f 3d 1e d7 05 bd 4b 23 b0 bc d9 19 cb 3d
       0.077827804 -0.032675855 -0.021501204 0.099170394
000150 35 d1 21 3b 26 2b 8f bd ba 35 a1 bc bf 12 8e bd
       0.0024691347 -0.06990652 -0.01967894 -0.06937169
000160 a7 36 91 bd 98 b2 d4 3d 8d a2 1d 3d 95 87 89 bc
       -0.07090502 0.103856266 0.0384851 -0.016788283
000170 a1 06 4f 3c f9 b6 7c bb fa 99 00 bd bb 12 07 3e
       0.012635858 -0.0038561209 -0.031396843 0.13190739
000180 2b 62 81 3c 3b 22 5a 3d d1 23 bc bd 4d ac 9f bd
       0.01579388 0.0532553 -0.09186519 -0.07796536
000190 57 b5 94 bc 20 5d 1a 3d 1c e0 88 3c f8 c5 37 bd
       -0.018152876 0.037686467 0.016708426 -0.044866532
0001a0 3b d6 7e 3c 42 8b ae 3c 3d 91 93 bd 89 68 83 bc
       0.015554006 0.021306638 -0.072054364 -0.016041057
0001b0 69 f9 90 bd 4a 3e af bc d6 bf 14 bd b7 99 31 bb
       -0.07078821 -0.021392006 -0.03631576 -0.0027099678
0001c0 63 6f 8f 3d fd 44 48 3d 22 11 fa bc 2b 4b 46 3c
       0.07003667 0.048893917 -0.030525748 0.012102882
0001d0 8b d5 d4 bd bd 2f 33 3d d2 ed 30 3b 5d 67 d6 3d
       -0.103922926 0.0437467 0.002699722 0.10468934
0001e0 7f f0 05 bd 04 86 c2 bc 05 3f c6 3d 8e 0d 24 bc
       -0.032700058 -0.023745544 0.09679989 -0.010012997
0001f0 55 36 95 3d 50 38 a0 3c 34 de ba bb a0 36 dd 3b
       0.07285754 0.019558102 -0.005702758 0.0067508966
000200 7e 34 6b 3d de ad 55 bd c0 f2 db 37 50 d2 85 bd
       0.057423107 -0.052167766 2.6219874e-05 -0.065342546
000210 3f 02 01 3d 08 15 58 3c 23 8d 0f 3d 4e 0d 86 3d
       0.031496283 0.013188608 0.035046708 0.065455064
000220 4c 49 04 be b1 dc 71 3d 73 ce a3 3d 58 ed c3 3d
       -0.12918586 0.05904836 0.079983614 0.09566754
000230 0e d1 9f bb 5a b8 45 bb cb ae ac 3d 04 41 25 be
       -0.004877216 -0.0030169697 0.084317766 -0.16138083
000240 41 5a a1 3d 50 31 0b bc d4 61 36 bd 28 d4 85 3b
       0.07878543 -0.008495644 -0.04452689 0.004084129
000250 ee 95 42 bc 12 26 d3 3d 01 95 d6 3c ce 9a 10 bd
       -0.011876566 0.10309996 0.026194097 -0.035303883
000260 72 7b 7a 3c d6 a4 6b 3d ec ce 87 bd cd 0a a2 bc
       0.015288221 0.057530247 -0.06631264 -0.01978054
000270 01 02 30 3d 25 f5 a4 3a 61 a3 52 3c 1a c2 22 3b
       0.04297066 0.0012585266 0.012856335 0.0024834932
000280 7b fe 5c bc cb 6a bf 3d bd 6b be bd 17 44 ad 3e
       -0.013488407 0.09346541 -0.09297893 0.3384101
000290 34 2e ba bd a8 36 1f 3c 32 8d 8e 3d f2 ea 62 bd
       -0.09090844 0.009717621 0.069605246 -0.055399843
0002a0 88 2d 39 bd 2d df 8a 3d 14 b9 a2 3c 6d 21 cd bc
       -0.045209438 0.06780849 0.019863643 -0.025040353
0002b0 be 04 87 bd 2c 59 dc bc 1e 4d 16 3b 11 83 1f 3d
       -0.065927014 -0.02689799 0.002293415 0.038943354
0002c0 17 60 5c bc 96 8b 1e bc 4d c9 83 bd 5e 0b a4 3b
       -0.013450644 -0.009676835 -0.064348795 0.005006238
0002d0 e1 79 90 3c d8 40 5d bd 98 0b 6f 3d f8 a7 b5 3d
       0.017636241 -0.054016918 0.058360666 0.08869928
0002e0 0d 61 d3 bc fe cc 4c bd 12 b3 36 bb 4d d8 d4 3b
       -0.025803113 -0.050000183 -0.002787773 0.0064955116
0002f0 7b dd 78 3d 90 8a 91 bc 19 6f 47 3d fd a3 f6 3d
       0.060758095 -0.017766267 0.048689935 0.12042997
000300 c7 5c 73 bc a1 c6 17 3d 35 2f 02 bb 4b 4b a0 3c
       -0.014853663 0.03705466 -0.0019864563 0.019567152
000310 16 c3 21 3d aa 2d 9f 3d fe ea e6 bd 0d 1a 5e bd
       0.03949269 0.077723816 -0.1127529 -0.054224063
000320 91 d6 60 3d cd 9b ad 3b ef fd 0e bd ef 39 85 bd
       0.054892126 0.005298114 -0.03491014 -0.065051906
000330 d0 70 94 bc 30 7e 0f 3d 77 fc 3d 3d b1 4d e9 bd
       -0.0181202 0.03503245 0.046383347 -0.113917716
000340 9e 30 17 bd 6a 5a 06 bd 12 2e af bc c9 ad 01 3b
       -0.0369116 -0.03280107 -0.021384273 0.0019787422
000350 8f 93 e1 3d 15 a1 c4 3d 87 ba cb bd 12 0d 3d 3d
       0.11014473 0.096010365 -0.09947687 0.046155043
000360 76 84 94 3d f3 ac bd 3d 6f 97 89 3c 8f a7 91 bc
       0.072518274 0.09261503 0.016795842 -0.017780093
000370 03 34 38 bd 76 d9 c2 3a f2 14 e5 3d f8 59 a4 3b
       -0.044971477 0.0014865834 0.111856356 0.005015608
000380 9b 78 16 3c d7 ed 1a 3d fa 9c 5a bc da 78 54 bc
       0.009184028 0.037824478 -0.01334309 -0.012968266
000390 d1 ed 26 3d e2 b8 7d bd 37 01 4b bd 57 bd 4e bd
       0.040754143 -0.061943896 -0.049561705 -0.050473537
0003a0 23 4f 37 bc 0c 33 be 3c 1f 50 6b 3d 2c 9f 4f 3c
       -0.011188301 0.0232177 0.057449456 0.012672227
0003b0 5c a3 95 3d aa 6e 34 bd 43 40 93 bd d6 11 c4 bd
       0.07306549 -0.04405085 -0.07189991 -0.095737144
0003c0 12 83 a8 bc e0 05 8d bd c9 4e dc 3d 48 da c6 3c
       -0.020570312 -0.06885886 0.107572146 0.024274006
0003d0 5d 36 40 3d 02 a1 08 bd 3a 67 43 bd aa 03 44 3c
       0.046926845 -0.033356674 -0.047705866 0.011963764
0003e0 eb 2e 28 bd dc e7 d0 3d 7c d0 45 ba 61 95 8f 3b
       -0.04106037 0.10200474 -0.000754602 0.004381821
0003f0 7d ba e6 bc 9d 78 a3 bd ad 8d 99 bd e4 0c fb bb
       -0.028165096 -0.079819895 -0.07497726 -0.007661449

linear.bias f4 [2]
000000 02 f9 4c bf 8d ff 42 3f
       -0.80067456 0.7617119
