layer3_linear_probe.pth (torch, 4101 bytes, 2 tensors)

linear.weight f4 [2, 256]
000000 e9 fb 30 be 09 fa b9 3e 33 8e 9c 3d c3 da 37 bf
       -0.17283596 0.36323574 0.0764431 -0.7181818
000010 fd 38 ca 3e 7a 66 94 be de 71 55 be bf 16 55 3e
       0.39496604 -0.28984433 -0.20844218 0.20809458
000020 15 80 bf 3e 47 43 ea 3e a5 5c c0 be 9a 95 82 be
       0.37402406 0.45754454 -0.37570682 -0.25504762
000030 b2 5f eb 3e 01 40 6f bc 02 f5 29 bf 75 84 3c bf
       0.45971447 -0.014602662 -0.6638948 -0.73639613
000040 2e 58 39 3d 9c 79 88 be 4d 49 13 be 8a f0 55 bf
       0.04525011 -0.2665528 -0.14383431 -0.8357016
000050 f0 28 0d 3d 73 ae 38 3e 79 b8 39 bf 61 2b 0f 3f
       0.03446287 0.18035297 -0.7254711 0.55925566
000060 d7 c7 0e be 2c 2f ec be d6 fc 2a be 1d 6c 37 be
       -0.1394342 -0.4612974 -0.16698012 -0.17912336
000070 94 bc 6c be 6c 94 75 be 0e 30 16 40 d1 78 53 3e
       -0.23118812 -0.239824 2.346683 0.20651557
000080 e0 46 ea bd 1f e9 14 bf 0a 87 4a bf dd 77 36 bf
       -0.114392996 -0.58168215 -0.79112303 -0.71276647
000090 2a e7 97 3e b0 f2 08 3e 28 65 02 3f 8d 0e af be
       0.29668552 0.13373828 0.509356 -0.3419079
0000a0 b4 8e cb bf 56 91 57 3f 40 40 ac 3e b1 ff 59 bf
       -1.5902925 0.8420614 0.3364277 -0.8515578
0000b0 b0 0b 16 be 2d a5 7f c0 75 29 21 bf 27 f7 12 bd
       -0.14652896 -3.9944565 -0.62953883 -0.035880234
0000c0 a4 b9 05 be e7 79 96 bf eb 38 57 3f d9 11 16 3d
       -0.13059098 -1.1755952 0.84071225 0.036638115
0000d0 8c 70 85 3f 29 ed ba be 96 81 c6 3f ab 7d 54 bf
       1.0424972 -0.36509064 1.5508296 -0.83004254
0000e0 9f 7b 50 bf 88 c2 e5 bb 4b c4 c2 3f 8b 49 77 be
       -0.8143863 -0.0070117153 1.5216154 -0.24149148
0000f0 c1 6e 9c be 84 c2 4d bd f1 b6 50 bf 03 7c 40 be
       -0.3055325 -0.050234333 -0.81529146 -0.18797307
000100 75 b4 51 3e 4a fa d1 3d cb 51 a6 bd c3 3f da be
       0.20478995 0.10252817 -0.081210695 -0.4262677
000110 5b 2d df 3f 3a ee df bd d8 8e ce 3f 12 b7 bd 40
       1.7435716 -0.1093411 1.6137342 5.9285975
000120 8b 10 80 be 18 3b 03 3f 45 ff 03 bf 4c 80 e6 be
       -0.2501262 0.51262045 -0.51561385 -0.45019758
000130 76 09 c5 be 31 ea da 3e 01 d2 5f bd a9 6c 94 bf
       -0.3848378 0.427568 -0.054643635 -1.159566
000140 24 58 0c 3f b3 db 4c 3f e9 a8 3d be e6 b9 0e bf
       0.5482199 0.80022734 -0.18521465 -0.5575241
000150 98 cb 3c bf e4 bb 8a 3f 8b 46 10 bf 78 bf 07 bf
       -0.7374816 1.083859 -0.5635764 -0.53026533
000160 28 e6 f6 bc 86 83 a5 3d c7 bb 6f 3f 71 ca 78 3f
       -0.030139044 0.08081727 0.936459 0.971839
000170 e7 60 0e bf 41 28 25 bf c3 72 26 be 89 84 d4 bf
       -0.5561661 -0.6451455 -0.16254716 -1.6602947
000180 6e 8e 52 bf 63 d9 3d 3f bc 84 23 3e e7 b6 58 bd
       -0.8224858 0.7415983 0.15968603 -0.052908804
000190 3f 15 42 3e 1e 51 44 bc 38 8f da bf f9 5e 25 3e
       0.18953417 -0.0119822305 -1.7074957 0.1614951
0001a0 4b 1d 34 bf 01 68 51 3f 35 de 7c 3f 0a 80 df be
       -0.703572 0.8179932 0.9877656 -0.43652374
0001b0 d5 60 44 3f 9a cb e7 be 3a 04 b4 be 8d be 85 be
       0.76710254 -0.45272523 -0.35159475 -0.2612194
0001c0 ea 94 03 bf 90 4e cc 3d 55 bc c1 be 12 86 ae 3f
       -0.513991 0.09975922 -0.37838998 1.3634665
0001d0 4c b6 2d bf cc e5 95 3e e0 5d e6 bd f3 ae e1 3e
       -0.6785629 0.29276884 -0.11248374 0.44078788
0001e0 39 72 c0 be 23 40 ff be 2d 86 8e 3e 44 7d 66 bf
       -0.37587145 -0.4985362 0.27836743 -0.9003489
0001f0 16 1e a1 3e 7a 1d 6f be cd 95 b1 be 14 8f 13 bf
       0.31468266 -0.23351088 -0.346846 -0.57640195
000200 7b 4a 67 bf ca 39 93 c0 d7 2f b3 bf 8b 50 95 3e
       -0.90348023 -4.6008043 -1.3998975 0.29163012
000210 b3 cb ef be e2 fd 44 bd 5a 3f b7 bf c5 ef 5e 3f
       -0.46835098 -0.048093684 -1.4316208 0.8708461
000220 28 aa da 3e 5f 72 1a 3f 3c 0e c8 3e d2 00 3b 3f
       0.42707944 0.60330766 0.3907336 0.73048127
000230 79 bb 1b bf 6f dc 79 be 9a 1c 82 bf 4f f2 83 bf
       -0.60832936 -0.24400495 -1.0164979 -1.0308322
000240 19 8d aa 3f 1e eb 9c be cb 93 19 3f 38 40 45 3f
       1.332431 -0.3064813 0.5999114 0.77051115
000250 43 b7 4d 3f fc 3a 2e bf 0f c0 cb 3c 30 fc 59 3f
       0.8035776 -0.68058753 0.024871854 0.8515043
000260 45 ed b3 3f ac 81 73 bf b5 c1 53 be 88 50 1c bf
       1.4056784 -0.9511974 -0.20679362 -0.6106038
000270 f4 84 b0 3e 69 ff 64 bf 97 68 1e bf de e8 32 3f
       0.34476435 -0.89452225 -0.6187834 0.6988658
000280 1b 65 b1 be 0a e3 2e 3e ef c2 c4 be 06 f6 93 3e
       -0.3464745 0.17078796 -0.38429973 0.28898638
000290 63 02 95 be 47 41 9e 3e 5c 38 50 bf 3e 84 2e bf
       -0.29103383 0.30909178 -0.81336 -0.68170536
0002a0 be c6 43 be 6a 42 42 3d 35 b7 4a be ce 57 46 3f
       -0.19118783 0.04742662 -0.1979645 0.7747773
0002b0 ae ab 93 3f a3 8c b9 be e3 26 45 3e f9 55 bc 3e
       1.1536767 -0.3624011 0.19253115 0.36784342
0002c0 30 40 ea 3b b6 ba cd 3e 0e 5d b7 be a7 33 d0 bd
       0.007148765 0.40181512 -0.35813183 -0.10166102
0002d0 a3 68 43 be 0b b4 2d be 18 a9 38 3e 97 99 97 3e
       -0.19082884 -0.16963212 0.18033254 0.29609367
0002e0 b1 78 83 3d 2a 34 08 bf bf 99 10 3f 52 2e 82 bd
       0.064195044 -0.53204596 0.564846 -0.06356491
0002f0 b3 62 99 3d 78 e9 1a 3f e5 3d 06 bd f5 1c b2 3f
       0.074895285 0.60512495 -0.03277387 1.3915087
000300 9c a1 83 bd cd 13 a3 3e 2b 38 8f 3f c1 bb b5 bf
       -0.06427309 0.31851044 1.1189016 -1.4197923
000310 8f 0e 02 3f eb 1b a8 bf 92 95 21 be 48 91 19 be
       0.50803465 -1.313352 -0.15779713 -0.14996827
000320 ee b1 4e ba 6f 23 33 bf 6b 4e 8a be 68 3b bd 3e
       -0.000788479 -0.6997594 -0.27012953 0.36959386
000330 c3 4f 31 be 92 db f5 bf 8d e9 87 3f 4c 83 f4 bd
       -0.17315583 -1.9207633 1.0618149 -0.119391054
000340 87 a4 92 bf cd 6c 9a be 0a 3f 51 bb 73 bf 52 3d
       -1.145646 -0.30161133 -0.0031928443 0.05145211
000350 64 a6 01 bf ce 81 52 bf 55 ca 36 bf 58 b2 d6 bc
       -0.50644517 -0.82229316 -0.71402484 -0.026208088
000360 09 96 6f 3f 21 b0 97 bf 66 af 35 bd f6 3f 21 3e
       0.9358831 -1.1850625 -0.044356726 0.15747055
000370 ec d9 a3 3e 03 22 6c bf 45 c0 c5 3e bc c5 3b 3e
       0.320022 -0.922394 0.38623253 0.18337148
000380 71 fd 85 bc e6 c7 af bf ed d5 53 bf bb f4 69 3d
       -0.016356202 -1.3732879 -0.827483 0.05711816
000390 18 e2 aa 3f c3 e1 41 3e c4 c4 bf be 25 50 ca 3e
       1.3350248 0.18933778 -0.37454808 0.3951427
0003a0 f4 ff 02 3f 8d 8c 5e 3d 8f 36 2d 3f 1f 80 ea bf
       0.51171803 0.05433326 0.67661375 -1.832035
0003b0 ab ea 08 3f 87 a9 3e 3f 80 7b e6 be bb 5c b3 3e
       0.53483075 0.7447743 -0.45016098 0.35031685
0003c0 a5 7c e8 3f 81 89 3a 3f ff 8b 8f 3f 60 33 da be
       1.8163038 0.72866064 1.1214598 -0.4261732
0003d0 b6 f9 86 bf 42 ea 1a 3d 83 64 bd be bb 7e 80 3f
       -1.0544956 0.037821062 -0.36990747 1.0038675
0003e0 0a 8a 35 bf 2b ac 83 be fc a3 1b bf f9 f9 44 3f
       -0.70913756 -0.2571729 -0.60797095 0.7694393
0003f0 d9 a6 22 bf ea aa cd 3e ec 00 87 3f b4 b8 3e 3f
       -0.6353584 0.4016946 1.0547156 0.74500585

linear.bias f4 [2]
000000 6f 61 37 be be fa 88 3e
       -0.17908262 0.267538
