layer1_linear_probe.pth (torch, 2565 bytes, 2 tensors)

linear.weight f4 [2, 64]
000000 f5 a8 aa bf 1c a9 24 bf c3 de b3 3f e7 73 a5 3f
       -1.3332812 -0.6432054 1.4052356 1.2925996
000010 22 92 09 3e 6d b3 ba 3f 64 45 2a bf 0d 4f e5 be
       0.13434651 1.4586006 -0.6651213 -0.44786873
000020 14 0f 06 bf 78 9b 19 3f 7a 90 ea 3e c5 b0 c7 be
       -0.5236676 0.6000285 0.45813352 -0.39002052
000030 43 20 c6 be 9f 9c 07 3f 96 d7 a2 be 16 1d 33 bf
       -0.3869649 0.5297336 -0.31805104 -0.69966257
000040 75 ba 91 3e a5 6d a1 bf a3 61 4a bf 9f 58 61 3b
       0.28462568 -1.2611586 -0.7905523 0.0034385098
000050 f6 5a ae 3e a1 8d 1e bf 49 26 16 3f 00 90 52 c0
       0.34053773 -0.6193486 0.5865217 -3.290039
000060 3d 20 cb 3f 86 e2 87 be 79 b0 d6 be c1 a7 88 be
       1.5869213 -0.2654001 -0.41931513 -0.26690486
000070 c0 ce cd be 9a 61 72 3d 3b f3 81 bf b3 ec e0 3e
       -0.401968 0.05917511 -1.0152353 0.43930587
000080 f4 50 0b 3f 5c 28 30 be 27 91 90 3e 53 38 3c bd
       0.544204 -0.17202896 0.28235742 -0.045952152
000090 18 03 94 3e 76 b7 b9 bd 9a 31 b6 bd 93 36 3d 3f
       0.2890861 -0.090681955 -0.088961795 0.739114
0000a0 f4 0a 85 bf 4e 1c b0 3f 5a 7a bd 3e 62 fc 5b 3d
       -1.0393968 1.3758638 0.3700741 0.053707488
0000b0 d4 69 9b 3e 2b d9 5b bf a9 08 a3 3d be 1e 91 3f
       0.30354178 -0.8587825 0.07960636 1.1337507
0000c0 f7 08 cc bd 3b 66 ec 3d 14 e4 d1 bd 31 19 05 40
       -0.099626474 0.115429364 -0.102485806 2.0796626
0000d0 0e dd 0e bf 4a 5a 26 c0 8b 4d 46 bf 60 eb 4d bf
       -0.5580605 -2.5992608 -0.7746207 -0.8043728
0000e0 cb 09 d6 bd e3 47 1d 3e dd 91 41 3f 68 d4 aa 3e
       -0.104510866 0.15359454 0.75613195 0.33365178
0000f0 34 8c 2f 3f cc 8b 6b 3b 7c 6d 89 3f 8a 06 1d 3f
       0.6857331 0.003594148 1.0736537 0.613381
000100 f9 5d aa 3f 6e b1 43 3f e6 36 bd bf a5 1e 9c bf
       1.3309928 0.7644261 -1.4782379 -1.2196852
000110 08 5e 85 bd 45 7a ca bf f2 c3 ef 3e 44 76 f3 3e
       -0.06512076 -1.5818564 0.46829182 0.47551167
000120 e9 e1 ea 3e 68 d3 00 bf b3 41 cc be 56 f9 97 3e
       0.4587548 -0.5032258 -0.39893875 0.29682416
000130 3b 12 b3 3e 7b 08 26 bf f8 45 b3 3e 20 fb 1b 3f
       0.34974846 -0.6485669 0.3501432 0.6093006
000140 fd 24 7a be 3f 2c a5 3f 6d 09 5a 3f 67 74 22 3e
       -0.24428172 1.2904128 0.8517063 0.15864716
000150 8e 20 d4 be 0e e0 43 3f af 7c b9 be 68 eb 57 40
       -0.41431087 0.76513755 -0.3622794 3.373743
000160 57 f4 d3 bf 54 28 84 3e 2b 10 a9 3e 55 c4 dd 3e
       -1.6558942 0.25812018 0.33020148 0.43313852
000170 79 75 9a 3e 23 f2 43 bd a0 2a 80 3f 55 63 fd be
       0.3016775 -0.04783834 1.0013008 -0.49489847
000180 35 2e 08 bf 62 60 1a 3e a6 ae 28 be b0 ed b7 3d
       -0.53195506 0.1507583 -0.16472873 0.08980882
000190 db 51 b2 be 0d 92 1b 3d 9c f1 0d 3d db 7f 40 bf
       -0.34828076 0.03798108 0.034654245 -0.7519509
0001a0 93 90 7e 3f 74 a3 af bf 08 38 d6 be f4 20 c1 3d
       0.9943935 -1.3721757 -0.41839623 0.094301134
0001b0 71 db 77 be b7 a3 48 3f 14 36 8a 3d 06 08 91 bf
       -0.24204804 0.7837481 0.06748596 -1.1330574
0001c0 cc d0 28 3e 70 cc 12 be 24 61 f6 3d a6 b6 06 c0
       0.164859 -0.14335799 0.12030247 -2.104898
0001d0 4e ad 1b 3f 9c 11 25 40 c1 b4 78 3f 12 f3 56 3f
       0.60811317 2.5791998 0.9715081 0.83964646
0001e0 4b 39 0e bd da dc 99 be 98 8d 24 bf 2c 07 a2 be
       -0.034722608 -0.3005131 -0.64278555 -0.31646097
0001f0 39 14 49 bf 84 df d7 3d ff 1f 8b bf 0c c4 10 bf
       -0.7854648 0.10540679 -1.086914 -0.56549144

linear.bias f4 [2]
000000 e4 8c f0 b9 1a 8f 07 3b
       -0.0004588134 0.002068466
