layer2_linear_probe.pth (torch, 3077 bytes, 2 tensors)

linear.weight f4 [2, 128]
00000000: 3b1f 553f 2043 26c0 3643 023f 6b79 43be
00000010: 77cf cc3e 6aa6 a03e 2925 403e c58b 323e
00000020: f887 a7bf a36c c4bc 2c69 55bf 7fb2 a63e
00000030: 4b81 dabe bf7b 0cc0 6df5 c9be f61e 84bf
00000040: 012a d63e b078 ab3f 7443 eb3f 7532 c4bf
00000050: 3c05 a8bf 5c95 ea3e 216d 3a3f 55ae 5ebe
00000060: 1c68 9abf 46ec 443f 4a1f 283f 2c5c 7a3f
00000070: 9ca2 843d 6118 74bf 625a b53e 8b6c 403f
00000080: a185 19bf 9aeb 203f c2e6 a8bf f3f7 a53d
00000090: d31a 2e3f 4415 23bf a8fe e1be 5090 1240
000000a0: 9ab2 323f 50ee 80bf 2ae8 61c0 d751 7ebe
000000b0: 60fa 20c0 4d23 823f 0ac5 ed3e 4e2c d13e
000000c0: 92b8 18be b171 01c0 6816 70bf 6173 083f
000000d0: 0e18 9abf d551 4340 07db 9ebe 48ab b13f
000000e0: 6c38 01bf bab8 b33f 5477 4cbe e472 d13e
000000f0: 90dc bdbd 893c cabf b300 4dbe b840 f23e
00000100: 4ee9 90bf 65f5 1b3f a9bb 523f 1772 f33f
00000110: fcf5 0e3f 8425 20bf f160 483f 3cb4 fcbf
00000120: bd83 313f 3465 b43f 126b 3cc0 8d3d 8a3e
00000130: a01c 3c3f 7c5c 893f bce9 ec3e 3e91 7d3f
00000140: 5208 87bf 0699 3abf ca4c adbf a8eb 0640
00000150: e742 4f40 7c53 54bf d300 debf 077b 763f
00000160: 62e4 8bbf d050 933f 9524 943f 0192 10bf
00000170: f1df 85bf fbbf 44bf c27b 25c0 a83a 833f
00000180: 8230 573f 362f c6be 3d64 3e3f 5b91 873f
00000190: 0c16 c63e 8d4f b33f 3b3b a0be 8635 33bf
000001a0: 24b8 e3bf f181 e4bf 73e0 863e 1915 4ac0
000001b0: d53e 29bd 5c37 e73f fa63 75be f17a aabf
000001c0: 7716 3c3f 17e4 3e3f cbe9 27be fe2a 8f3f
000001d0: ae0e 26c0 b01a 83c0 7885 913f 883b dcbf
000001e0: 4e89 8d40 00b6 dbbc f842 593f 5169 923f
000001f0: 19a7 e03e 5c4d 09c0 c519 9abf 5867 08bd
00000200: 192d 46bf 80e8 2740 e99f d5be 249f 613e
00000210: 2651 b4be 7372 4bbe e2de 9dbe 1cfd 68be
00000220: afae a43f 2ac4 c63d ee28 603f 250a e1be
00000230: 3fd0 d33e 2df9 0b40 6533 cb3e 393c 813f
00000240: 4bae dbbe 803a adbf 536f dfbf fee5 c33f
00000250: cda5 973f ee55 d9be 64cd 1bbf 1032 543e
00000260: 697a a13f 8116 3fbf b491 29bf b232 83bf
00000270: 0006 343c ea74 5d3f fc90 a1be 5458 51bf
00000280: 37ba 0c3f bd4b fbbe 3acc a33f 7401 cebd
00000290: aa33 25bf c6a0 283f 2fde b03e c3a1 13c0
000002a0: 08da 35bf 99f6 7f3f 32bd 6840 0be5 8a3e
000002b0: e606 1d40 fd8e 81bf 26d3 10bf 3a21 f7be
000002c0: dfdf db3d 3540 fc3f d93f 823f 7c75 04bf
000002d0: 26cb a03f 56cc 4ac0 d797 c93e d94b aebf
000002e0: 267d 1d3f 0304 abbf d9ff 1a3e db8b f3be
000002f0: f0a9 193e 9864 d13f 24d2 8d3e 48ba dbbe
00000300: 27e8 8b3f ef9b 0cbf 206d 53bf 97ec 00c0
00000310: aca0 0fbf d597 223f b1f4 3dbf df48 f93f
00000320: 339a 42bf bb5f aabf 8f3d 3940 1856 98be
00000330: 72cd 5abf f5bb 77bf fa24 fdbe cc97 61bf
00000340: 2bb5 8e3f 43c3 363f d813 a73f 5309 fdbf
00000350: eec6 4dc0 b79d 513f b485 e33f de82 6dbf
00000360: 6464 863f 9ffb a5bf 528a a3bf c30d 113f
00000370: 577c 713f 9afa 3e3f 9704 2b40 d608 89bf
00000380: 3e81 4ebf b822 bb3e c775 2ebf bbde 8dbf
00000390: ddd6 92be 8898 c0bf c510 d53e 80bf 293f
000003a0: e454 e33f 9b77 de3f 23e0 8fbe 2d1c 4f40
000003b0: eec3 ecbb 1bd8 e8bf 1639 583e 5ed4 a03f
000003c0: 25b6 5dbf 32aa 23bf 13b8 d33d ffcb 91bf
000003d0: 8699 2540 f5b1 7d40 7940 92bf af9f da3f
000003e0: d552 89c0 29ed 233e 6128 64bf 3a6e 85bf
000003f0: 676c fcbe 62d4 0440 5d75 923f bd11 27bc
0.8325078 -2.597847 0.50883806 -0.19089286 0.40002033 0.31376964 0.18764175 0.1743613
-1.3088369 -0.023977583 -0.83363605 0.32558057 -0.42676768 -2.1950529 -0.39445058 -1.0321949
0.4182892 1.3396206 1.837996 -1.5327898 -1.3126597 0.45817077 0.7282277 -0.2174619
-1.2063022 0.76923025 0.65672743 0.97796893 0.06476328 -0.953497 0.3542052 0.75165623
-0.59969527 0.628595 -1.3195422 0.08103933 0.6800968 -0.63704324 -0.441396 2.2900581
0.69803774 -1.0072727 -3.5297952 -0.24835907 -2.5152817 1.0167023 0.4643939 0.40854114
-0.14914158 -2.0225642 -0.9378419 0.53301054 -1.2038591 3.0518696 -0.3102648 1.3880396
-0.5047672 1.4040749 -0.19967395 0.40907967 -0.092705846 -1.5799724 -0.20019798 0.47315
-1.1321199 0.6092132 0.82317597 1.9019192 0.5584409 -0.62557244 0.7827292 -1.9742503
0.6934164 1.4093385 -2.944035 0.27000085 0.7348118 1.0731349 0.46272075 0.99049747
-1.0549414 -0.72889745 -1.3539059 2.1081333 3.2384584 -0.8293989 -1.7344002 0.96281475
-1.0929072 1.1509037 1.1573664 -0.56472784 -1.0458966 -0.7685544 -2.5856786 1.0252275
0.8405839 -0.38707894 0.743717 1.0591234 0.38688695 1.4008652 -0.3129519 -0.70003545
-1.779057 -1.7852155 0.26343116 -3.1575377 -0.041319687 1.8063769 -0.2396392 -1.3318769
0.7347178 0.7456679 -0.16397779 1.1184995 -2.594646 -4.0970078 1.1368856 -1.7205667
4.423011 -0.026820183 0.8486781 1.143839 0.43877485 -2.1453466 -1.2039114 -0.03330168
-0.77412564 2.6235657 -0.41723564 0.22033364 -0.3521816 -0.19867878 -0.3083411 -0.22752804
1.2865809 0.09705384 0.87562454 -0.43953052 0.41369817 2.1870835 0.39687648 1.0096503
-0.42906412 -1.3533478 -1.7455848 1.5304563 1.1847473 -0.42448372 -0.60860276 0.20722222
1.2615482 -0.74643713 -0.6623795 -1.0249846 0.010987759 0.8650652 -0.31555927 -0.81775403
0.5497164 -0.4908122 1.27967 -0.10058871 -0.6453196 0.6587032 0.34544513 -2.3067482
-0.71035814 0.99985653 3.6365476 0.2712787 2.453546 -1.0121762 -0.56572187 -0.48267537
0.107360594 1.9707094 1.0175735 -0.51741767 1.2561996 -3.1687217 0.39373657 -1.3616897
0.61519086 -1.3360599 0.1513666 -0.4756764 0.15006232 1.6358824 0.27699387 -0.4291556
1.0930222 -0.54925436 -0.82588387 -2.0144403 -0.5610454 0.6351293 -0.74201494 1.9475363
-0.7601654 -1.3310465 2.8943822 -0.29753184 -0.85469735 -0.96771175 -0.49442273 -0.8812225
1.1149038 0.71391696 1.3052931 -1.976847 -3.2152667 0.8188128 1.7775178 -0.9277781
1.0499387 -1.2967414 -1.2776587 0.56661624 0.9433035 0.7460114 2.6721551 -1.0705822
-0.8066596 0.36549926 -0.68148464 -1.1083597 -0.28679553 -1.5046549 0.41614357 0.6630783
1.7760282 1.7380251 -0.2810069 3.2360947 -0.007225505 -1.819095 0.21115527 1.2564809
-0.86606055 -0.6393157 0.10337844 -1.139038 2.5874953 3.9639866 -1.1425925 1.7079982
-4.2913613 0.16008438 -0.89124113 -1.0424263 -0.49301454 2.0754628 1.1442066 -0.0101971

linear.bias f4 [2]
00000000: 515a 94be b0cc 923e
-0.28975156 0.2867179
